python/ray/tune/examples/pbt_dcgan_mnist/mnist_cnn.pt (torch_old, 88700 bytes, 8 tensors)

conv1.weight f4 [10, 1, 5, 5]
000000 52 7e 81 be 92 12 53 3c 76 c2 a2 3e ca 76 ff 3d
       -0.25291687 0.0128828455 0.31788987 0.12473829
000010 d5 64 6c 3e cf 75 f8 3c 8c 61 ed 3e 41 88 1a be
       0.2308534 0.030329613 0.46363485 -0.15091039
000020 1b 6f 97 be ae 19 90 bd 36 94 3e bd c2 f9 67 3e
       -0.29576954 -0.07036148 -0.046528064 0.22653869
000030 f6 69 d2 bd 5d f5 02 bf f3 e3 06 bd 97 fb 15 3d
       -0.10274117 -0.51155645 -0.032932233 0.036616888
000040 4a 29 ae 3d 89 9a 1d bd 80 ea e9 bd 2a 94 3c 3e
       0.08503969 -0.038477454 -0.114216805 0.18415895
000050 a5 ff be bd e4 b4 1a 3e 32 ef 5a 3e be 94 27 3e
       -0.09326104 0.15108067 0.21380308 0.16365334
000060 0d dd 3a 3e ac f7 4a be fe 16 aa be 21 48 a3 be
       0.18248387 -0.19821042 -0.33220667 -0.31890967
000070 c4 72 6d 3d 1b 27 a0 bd eb 42 cd 3e da 1d 14 3d
       0.057970777 -0.07819959 0.40090117 0.03616128
000080 2b c6 a9 bc 82 89 3a be b9 e9 6c be 9c d4 1e 3e
       -0.020724377 -0.18216518 -0.23136033 0.15510792
000090 58 66 99 3d 5b 68 e4 3d 49 7d 30 3e ef 72 9c be
       0.07490224 0.11152717 0.17235292 -0.30556437
0000a0 49 3f 30 be c1 f4 4d 3b 0b 10 bc 3d 23 64 2a 3e
       -0.17211641 0.0031426402 0.091827475 0.16639762
0000b0 63 5d 2c bc f9 c6 69 3e a3 5c 4c bd 8d 54 e2 3c
       -0.010520312 0.22829808 -0.049893033 0.027628208
0000c0 b4 df cc bd 92 95 01 3f 53 77 10 3e 37 36 79 3e
       -0.100036055 0.5061885 0.14108019 0.24337088
0000d0 3a 78 a0 3d c0 3f bd 3e 09 16 25 be 73 d0 77 3c
       0.078354314 0.369627 -0.16121687 0.015125382
0000e0 b8 0c 4d be 61 ce da be 51 e0 14 3e 82 aa 03 3e
       -0.20024383 -0.4273558 0.14538695 0.12858012
0000f0 1c 11 03 3e 6b 24 40 be 3b 81 87 be 35 a1 22 bc
       0.12799495 -0.18763892 -0.26465783 -0.00992613
000100 0f e1 db 3d 69 ca 3e bd 5c 4d ec 3c 16 b2 5e 3e
       0.10736286 -0.046579752 0.028845482 0.21747622
000110 e5 e2 d6 3d 08 a8 84 3c 2b 2e 9a 3e 40 29 bd 3d
       0.104924954 0.016193405 0.30113348 0.092363834
000120 09 fb 40 be d5 2d 8d bd 76 ca 07 3e 21 c1 4a 3e
       -0.18845762 -0.068935074 0.13260826 0.19800235
000130 ea e7 50 3e ae bc 17 3e 3a a2 79 3e e6 0b 41 3e
       0.20400968 0.1481807 0.24378291 0.18852195
000140 68 c7 d6 3d 9f 0d 93 bd 77 82 96 bd 2f 7a 8a be
       0.104872525 -0.071803324 -0.07349103 -0.27046344
000150 f5 3e d2 bc e7 e6 32 3d 34 61 a7 3e 29 d4 49 be
       -0.025664786 0.043677237 0.32691348 -0.19709839
000160 7e f4 7a be 10 ef f6 3d a4 4e 64 be 42 74 a7 be
       -0.24507329 0.12057316 -0.22295624 -0.32705885
000170 5c 24 50 be 7f 1e 78 3d a4 fa 2d 3e 04 5b 19 be
       -0.2032637 0.06057596 0.16990143 -0.14976126
000180 f0 d2 42 bd 8b 96 bb 3e 06 3e ac 3e a2 25 f0 3d
       -0.047564447 0.36638293 0.3364107 0.11725928
000190 51 c9 12 be c3 89 f3 3e 3d ab c2 bd 2a dc bf bc
       -0.14334609 0.4756604 -0.09505317 -0.023420412
0001a0 6c 58 71 be 92 dc 7e 3e 18 da 62 3e a2 95 10 3d
       -0.23568887 0.24888828 0.22153509 0.03529895
0001b0 3b ed 9e bd ff e7 e2 bd 49 5a b2 3e eb e2 3f 3e
       -0.07760092 -0.11079406 0.34834507 0.18738906
0001c0 5c 58 2b be d9 ec 18 be 8a 0e 05 bd 04 ec 7f bc
       -0.16732925 -0.149341 -0.03248457 -0.015620235
0001d0 a9 c5 00 be ca 63 a3 bd 6e 9c 9a bd df 49 6c bc
       -0.12575401 -0.07978018 -0.07549368 -0.014421909
0001e0 9c 75 1d bd e3 c2 b2 bd 72 ee 86 3c 20 59 df bc
       -0.03844224 -0.08728578 0.016471121 -0.027264178
0001f0 ca 5f 10 3d 0c 93 1d 3b 51 e6 f8 bd be a1 85 3d
       0.0352476 0.0024043946 -0.12153304 0.065249905
000200 c7 ce 1d 3e 27 94 dd 3d 4e aa 1f bd b8 b1 10 3d
       0.1541091 0.108192734 -0.038980775 0.035325736
000210 b3 63 f3 bb 86 4e 3f be 34 8c dd 3e f3 78 18 be
       -0.0074276566 -0.18682298 0.4327103 -0.14889888
000220 5c e2 29 ba c1 d2 f4 bd 5e c9 c4 bc ac a2 7e 3e
       -0.00064805686 -0.119542606 -0.0240218 0.24866742
000230 a4 f0 02 be 82 cb 41 be 16 ab 3f be bf 07 31 3e
       -0.1278711 -0.18925288 -0.18717608 0.17288111
000240 a5 4e 3d 3d 54 bb 2a 3d c5 d4 a2 3d eb 0f f5 3d
       0.04621758 0.041682556 0.07950739 0.11965927
000250 1e 00 e6 3e 85 be 79 3d 0b 59 11 3e 98 7e 44 3a
       0.44921964 0.06097271 0.14194123 0.00074956706
000260 d0 7a 1c 3e 9f 31 24 3e b3 b1 00 3d 62 32 8c 3d
       0.15281224 0.16034554 0.031419467 0.06845547
000270 29 54 df bd 28 85 1f 3d 20 a2 54 3e c3 d8 d7 3e
       -0.10904724 0.038945347 0.20764971 0.42157564
000280 81 35 18 be f8 1f 32 3d 83 3d f1 3d 2b 5c 18 be
       -0.1486416 0.04348752 0.117793106 -0.1487891
000290 4a 0a 25 3d af 8f e3 bd 1d 0f 85 be 13 15 76 bc
       0.040293016 -0.1111139 -0.25988093 -0.015019673
0002a0 90 ea 2a 3d 3d 82 28 bd 21 f5 bc bd 84 b7 5c bd
       0.041727602 -0.04113983 -0.09226442 -0.05388595
0002b0 1a b1 6d be c1 1a e3 bd bb 63 b0 be 69 13 83 3e
       -0.2321209 -0.11089087 -0.34451088 0.25600746
0002c0 04 b4 3b 3e 0e 71 5e bd 94 c7 85 3d b8 d2 df bd
       0.1833039 -0.054307036 0.06532207 -0.10928863
0002d0 67 cc 49 bd 08 e0 d1 3d e8 96 91 be 16 b5 c3 39
       -0.0492672 0.10247809 -0.28435445 0.00037328218
0002e0 f9 de 33 be 18 c0 89 bd fc ff 04 3f 3a d9 d8 3d
       -0.17565526 -0.06726092 0.519531 0.10588308
0002f0 4a 31 41 be 13 56 91 3d c3 30 23 be 4e c3 09 3e
       -0.18866459 0.070964955 -0.1593657 0.13453409
000300 7e d1 02 3f 0a 89 2a bd c5 f0 00 3d 15 e6 c3 be
       0.5110091 -0.041634597 0.031479616 -0.38261476
000310 44 0f 96 be 62 9d aa 3c 8b b1 1b 3e 72 f2 71 3e
       -0.29308522 0.020827 0.15204446 0.23627642
000320 78 ab 11 be 28 d0 39 3d eb a0 2f 3e e9 8a 97 3e
       -0.14225566 0.04536453 0.17151229 0.29598168
000330 76 4f 50 be 7d c5 3d be 5a 97 1f be 16 a6 c1 3d
       -0.20342812 -0.18532367 -0.1558508 0.094555065
000340 4e 23 60 3e 49 5a 65 be 5d 7b 38 be ac c5 a4 bb
       0.21888468 -0.22397722 -0.1801581 -0.005028447
000350 6a bf 2b bd bb 76 56 3e 6c af 21 be 9e 3e 4c be
       -0.041930594 0.2094373 -0.15789574 -0.19945762
000360 57 b0 b8 3c b4 9c 57 3e 45 e0 61 3e 59 23 4e be
       0.022545023 0.21055871 0.22058208 -0.20130672
000370 63 7b 19 be 31 a9 39 be 18 6b 5f be 4b 90 15 3e
       -0.14988475 -0.18130948 -0.21818197 0.14605825
000380 16 69 16 3e 03 d3 3a 3e 5b 9d cd bd fb cf 66 be
       0.14688525 0.18244557 -0.10039779 -0.22540276
000390 70 f4 00 be a2 a2 2f 3e 56 17 1e 3e 93 fc a2 be
       -0.12593246 0.17151883 0.1543859 -0.31833324
0003a0 b8 96 04 be 35 03 cd 3e f4 fe 0d 3e fe c7 e0 3d
       -0.1294812 0.4004151 0.13866788 0.109756455
0003b0 98 14 70 3e 1c d8 12 3f f6 96 08 3e 99 3a 8e 3d
       0.23445356 0.57361007 0.13338837 0.0694477
0003c0 a9 0e 13 3e 18 fd d8 3c f1 9f bd bd 88 2a 80 bd
       0.14361061 0.026487872 -0.09259022 -0.06258112
0003d0 ad f2 aa 3d 76 6d 35 be 81 bc 35 bd 2a 77 fc bd
       0.08347068 -0.17717537 -0.044369224 -0.12327416
0003e0 39 d8 69 3c b2 5e 1d be
       0.014272743 -0.15368155

conv1.bias f4 [10]
000000 1a 98 89 bf c3 75 85 bf 76 b2 7d bf d0 96 b7 bf
       -1.0749543 -1.0426563 -0.99100435 -1.4342899
000010 16 dd a2 bf e2 ab 35 bf 63 05 55 bf 35 50 94 bf
       -1.272372 -0.709654 -0.83211344 -1.1586977
000020 57 94 a8 bf a6 63 68 bf
       -1.317027 -0.9077705

conv2.weight f4 [20, 10, 5, 5]
000000 f9 62 8a bd 5d 14 b0 be 3a 8d 25 3d 23 c3 00 3e
       -0.06757159 -0.34390536 0.040417887 0.12574439
000010 db 4d 4a 3e 93 e7 df bd d6 e8 a1 3e 44 8f 5b be
       0.19756262 -0.10932841 0.31622952 -0.2144137
000020 61 9f 89 3d 1e 39 82 3e 89 5d d6 3d 5f 6c 38 3e
       0.06719852 0.25434202 0.10467059 0.1801009
000030 65 b7 b9 be e1 84 a6 bc 11 f0 69 3e bf 18 01 be
       -0.3627273 -0.020327033 0.22845484 -0.12607096
000040 b7 ec 03 bf 17 c4 33 bf 6a cb d4 be 5a db 3d 3f
       -0.51533073 -0.70221084 -0.41561443 0.7416283
000050 31 df 9b 3e 6a 6f ff be c4 2b f4 be 3c db 23 be
       0.3044372 -0.4988969 -0.4768964 -0.160016
000060 ea 03 67 be 78 ee 9e bd a3 57 37 3d fa 79 f0 3d
       -0.22560087 -0.07760328 0.04476131 0.11742015
000070 dd d8 8c 3b 9b 73 06 3e f5 68 45 be 45 a0 96 be
       0.004298313 0.13130037 -0.19278319 -0.2941915
000080 f7 8e d7 be bd 1d 5c be 2e d0 bd be 3e a5 2a bf
       -0.4210126 -0.21495719 -0.3707289 -0.6665839
000090 d9 4b 38 bf 98 4d f4 be 2e 84 40 bd de 11 19 bf
       -0.71990734 -0.4771545 -0.047001056 -0.5979289
0000a0 18 c1 cd be 01 d1 50 be 89 d0 86 3e ff 14 67 3d
       -0.4018638 -0.20392229 0.26330975 0.056416508
0000b0 ad a7 c4 bc 02 4f ca 3d c1 74 86 3e a5 b3 ce 3e
       -0.024005735 0.09878351 0.2626095 0.40371433
0000c0 c8 39 eb 3e 7f 5f 41 3f 81 b6 83 3a 7a a7 c4 be
       0.4594252 0.7553634 0.0010048897 -0.38409024
0000d0 83 88 09 3e 82 f7 d8 bd 38 c4 0a bf 72 44 02 3d
       0.13430981 -0.10594083 -0.54205656 0.031803556
0000e0 13 88 d8 be cc 4b 25 3d 93 c0 1d be fc 29 27 be
       -0.42291316 0.04035549 -0.15405492 -0.1632461
0000f0 da e2 05 3e 89 8b b8 be 8f 2b 88 be f8 f6 05 be
       0.13074818 -0.36043957 -0.26595733 -0.13082492
000100 b2 ce 9b be a4 0b 0e bf 81 30 06 bf ca 2a e7 bd
       -0.30431134 -0.5548651 -0.5241776 -0.11287458
000110 2e 4e ed 3d 68 ca 79 bd c9 25 d4 bd 30 ce 07 bd
       0.11587177 -0.060984045 -0.103587694 -0.03315562
000120 49 7d d2 be b0 15 38 be 70 3b 44 3d fc 78 d8 bd
       -0.4111121 -0.17977023 0.047908247 -0.10569951
000130 6b 0b 8e be a0 f9 ee 3e 60 ef 9e 3d d1 ca 2c bf
       -0.27743086 0.46674824 0.07760501 -0.67496973
000140 d9 df 5e be 93 55 1f 3d 77 be d1 be 66 22 ca be
       -0.21765079 0.03889997 -0.40965626 -0.3947937
000150 e4 66 6b bf 1c 53 1b 3b 9d 40 91 be 20 98 1d be
       -0.91953874 0.002370066 -0.2836961 -0.15390062
000160 8e 75 c2 3c c7 75 b0 be 82 48 7a 3e c4 f5 1f bd
       0.023737695 -0.34464857 0.24441722 -0.03905274
000170 c6 5b 88 3e a1 34 a6 3e 47 57 0c 3f 19 c4 81 3e
       0.26632518 0.32462028 0.54820675 0.25344923
000180 9a fc 26 be 2d 86 44 3f de a7 44 3f ec 4d cb 3e
       -0.16307297 0.76767236 0.76818645 0.39707887
000190 13 94 66 bd 75 36 26 be 4a 2e 1d 3d 73 19 07 be
       -0.05629356 -0.16231711 0.038374223 -0.13193302
0001a0 45 d4 d2 3e 67 db 82 3d 90 cf 93 3d 28 60 97 3e
       0.41177574 0.06389504 0.07217324 0.2956555
0001b0 37 6d e0 bc 34 f6 04 be 57 7a dc bd 1b 09 0f be
       -0.027395828 -0.12984544 -0.10765522 -0.13968317
0001c0 c5 5f 08 3e 20 8a 7c be f8 4c 0a be df b1 57 be
       0.13317783 -0.24662066 -0.13505924 -0.21063946
0001d0 11 8d 9d be ab c1 c2 be 3a 36 3a bf 78 d9 16 bf
       -0.30771688 -0.38038382 -0.72738993 -0.5892558
0001e0 6b eb ca bd 04 3c f3 3d d5 da 21 bf 0c 57 2c bf
       -0.09908184 0.118766814 -0.63224536 -0.67320323
0001f0 8b 4e 72 bf a5 fa 34 3c e4 4f 5e 3e ad 78 c6 bd
       -0.946511 0.011046086 0.21710163 -0.09690986
000200 75 93 9b 3d af 81 8e be 1f 94 cb 3c 9b bb ef bd
       0.075964846 -0.27833316 0.024850903 -0.11705705
000210 4b 8e 38 3e 6c 55 e6 3d db 92 dc 3d 61 39 55 bf
       0.1802303 0.11246762 0.10770198 -0.8329068
000220 57 ef 53 bf 54 10 9e be e9 06 31 be ed d2 21 bf
       -0.8278708 -0.30871832 -0.17287792 -0.6321247
000230 71 06 4b bf 82 43 80 bf f9 86 8a bf ae 43 44 bf
       -0.79306704 -1.0020602 -1.082244 -0.7666577
000240 11 5c 44 bf cd 0f fe 3c ca e4 ad 3d 5a 68 a7 be
       -0.7670298 0.031013394 0.08490904 -0.326968
000250 46 4a 3f be 18 51 10 be e0 55 ab be b2 60 89 3d
       -0.18680677 -0.14093435 -0.33463955 0.06707896
000260 ae b0 9b be de 14 29 bc a2 c0 dd 3d 67 ab 66 3e
       -0.30408233 -0.0103199165 0.108277574 0.22526322
000270 3a 17 83 3e b7 91 14 bd be ea 87 3d 74 35 87 3e
       0.25603658 -0.036271777 0.066365704 0.2640797
000280 f6 80 00 3d e9 3e 8c 3e 71 f9 d8 3d ed 01 36 3e
       0.031372987 0.27391747 0.10594452 0.17774172
000290 a6 9c 87 3e 77 a1 37 3e ef f1 26 3e e4 10 61 3e
       0.264867 0.17932688 0.16303228 0.219791
0002a0 ef 70 97 3e 72 a0 c5 bd 02 13 e8 3c ac 7a 12 3d
       0.2957835 -0.09649743 0.028329376 0.03576152
0002b0 b4 13 15 bf b7 d3 3e bf 82 3f af be 37 33 2d bf
       -0.5823319 -0.745418 -0.3422814 -0.6765627
0002c0 2c 52 e7 3d c2 0b 44 3d 64 f0 b1 3c 92 a9 18 3e
       0.1129497 0.047862776 0.021721072 0.14908436
0002d0 b0 31 9b be 46 e0 6a 3e 0b 25 80 3d ec cc c2 3d
       -0.30311346 0.22937116 0.062570654 0.09511742
0002e0 b6 e5 d9 3d 81 3d 69 3d ee 13 bd bd 87 cd b3 be
       0.10639517 0.05694342 -0.09232317 -0.35117742
0002f0 d7 3e 46 3e ba 69 f2 3d bc 00 9e be 94 22 47 3e
       0.19359909 0.11836572 -0.30859935 0.19446784
000300 98 dd cc be a3 3f 66 bf 82 83 9a be e6 6d 80 bc
       -0.40012813 -0.8994085 -0.30178457 -0.015677404
000310 d8 e9 66 bd ad a8 a0 3e 90 c3 a3 3d d9 83 b3 3e
       -0.056375355 0.3137869 0.07996285 0.3506153
000320 4c 45 85 be 2f c0 7a bf d3 b6 a1 bd 20 38 b0 be
       -0.26029432 -0.979495 -0.07896199 -0.3441782
000330 14 0a 12 be db d0 08 be 33 f4 f5 be 6d 44 ed 3e
       -0.14261657 -0.13360922 -0.48037872 0.46341267
000340 0f 5b d3 3d e1 2f 3e be eb db 71 bf 78 2c 45 bf
       0.103201024 -0.18572952 -0.94476193 -0.7702098
000350 76 f8 92 bc b2 73 08 bf 31 2f 27 bf 09 a3 87 bf
       -0.017940741 -0.5330154 -0.65306383 -1.0596629
000360 6b 1d 9c bf 30 3f 59 bf c2 20 1f be fb 15 b4 be
       -1.2196478 -0.8486204 -0.1553984 -0.3517302
000370 13 eb 89 3b b8 ff 91 3e dd f1 3d be 1f 5f 8d be
       0.0042089312 0.2851541 -0.18549295 -0.27611634
000380 53 65 8e be 2d 7d 69 3c a7 4a 89 3d 90 c0 a7 3e
       -0.2781168 0.014251036 0.06703692 0.327641
000390 62 91 6d 3e 01 53 36 3d 7a 4d e5 3e b4 54 7e 3e
       0.2319999 0.044512752 0.44785672 0.24836999
0003a0 04 70 18 be 0c b7 1f bd 6c a0 b8 3e 4b 86 21 be
       -0.1488648 -0.038992926 0.36059892 -0.15773885
0003b0 cd ee ce be 53 9a fe bd 14 87 0a bb cc 0a 5b 3e
       -0.40416566 -0.12431779 -0.0021137642 0.21390837
0003c0 8a bb d4 bd 1e 20 44 be 3a ae 95 bf fe a0 9d bf
       -0.10387333 -0.19152877 -1.1693795 -1.2314756
0003d0 e9 f3 a4 be c9 dc 08 3d 42 2c 8d be a5 eb 68 3d
       -0.3221734 0.033413682 -0.2757283 0.056865353
0003e0 2a 32 fd 3e 7a 85 0c be 29 af f9 bd 4e c0 28 bb
       0.49452335 -0.13722792 -0.12191612 -0.0025749388
0003f0 30 ec 4b 3a 10 f9 aa bc 14 b5 2f bd 1f 34 b0 39
       0.000777903 -0.020870715 -0.0428973 0.0003360817

conv2.bias f4 [20]
000000 4b d0 be bc 2e 0b ed bd dd 9c 97 bd 8c 1d 7a bd
       -0.023292681 -0.11574398 -0.07402966 -0.061063334
000010 04 92 66 bd 67 23 6f be ab 32 e0 3e 57 e9 43 3e
       -0.056291595 -0.23353349 0.43788657 0.19131981
000020 1f 8c 03 3f de 3f 9d bd 8c 99 66 3e b8 c1 90 bd
       0.5138568 -0.07678197 0.22519511 -0.07068199
000030 65 6e a7 3e 3c 69 c9 bd 4c 7a b1 bd f5 17 62 bd
       0.32701412 -0.09834525 -0.086659044 -0.05519863
000040 f0 57 9e 3e 82 60 c7 bd 46 a7 18 be 0c 8e 09 bf
       0.30926466 -0.09735204 -0.1490756 -0.5373237

fc1.weight f4 [50, 320]
000000 46 ab 55 3d 96 1e 0e be 46 6b dd be 19 a6 df be
       0.052165292 -0.13878855 -0.43245906 -0.4368141
000010 40 b6 19 3f d9 10 ba 3d ad e8 04 bf d1 4a ae be
       0.60043716 0.09085245 -0.51917535 -0.34041455
000020 03 03 90 be 31 8d e9 be 99 0a 11 3f 65 77 9b 3e
       -0.28127298 -0.45615533 0.56656796 0.30364528
000030 f9 31 01 bf f4 4b 58 be b4 a4 b6 3e 93 b9 8a 3d
       -0.5046688 -0.21122724 0.35672534 0.06773677
000040 2b 17 24 3e 7a ac 41 3d 34 c3 3f 3d 13 85 b5 bc
       0.16024463 0.047283627 0.04681702 -0.022158181
000050 e2 8c f9 3d e0 f2 b0 ba 3d 1a c5 3d 94 71 a5 bd
       0.121850744 -0.0013500117 0.09624145 -0.08078304
000060 86 11 2f bd 17 43 b6 bd 3d 59 01 bc c0 19 c8 3d
       -0.04274132 -0.08899515 -0.007894811 0.097705364
000070 ea 18 9f bd 1d 6b 3b bd 2f 32 e1 3d 9e 3c d5 3c
       -0.07768424 -0.045756448 0.109959 0.026029881
000080 a4 c0 29 bd fc 19 d2 bc ed c5 63 bd 31 a3 6f bc
       -0.041443482 -0.025647156 -0.05560868 -0.01462631
000090 30 2a 27 bd 64 da d0 bd 41 a4 65 bd 8d fe ce bd
       -0.040811718 -0.10197905 -0.056064848 -0.101071455
0000a0 17 2a b3 bd d2 98 67 bc 39 80 a6 bd 0c 38 8f bd
       -0.087482624 -0.014135556 -0.08129925 -0.06993112
0000b0 88 de b6 bc fa ef 14 bd 32 0f 8c bd a3 51 1e bc
       -0.022322908 -0.036361672 -0.06838836 -0.009663018
0000c0 c3 21 94 bd c0 70 c3 bd 46 01 96 3b 02 47 9e bd
       -0.07233002 -0.0954299 0.0045777885 -0.077283874
0000d0 49 38 46 bd 51 c4 de bd be 8b 2c bc c5 fe 85 bc
       -0.04839352 -0.10877288 -0.010531364 -0.016356835
0000e0 c9 1f 3b bd 48 a0 c4 bb b6 be 0d bd ef 0b be 3d
       -0.04568461 -0.0060005523 -0.034605704 0.0927962
0000f0 d5 f0 82 bd 71 97 a0 bd bb 9d 97 bd 97 6e 96 bd
       -0.06393591 -0.07841385 -0.074031316 -0.07345312
000100 55 78 2e bd e5 99 92 bd 05 d6 0e 3d 7c 57 19 bd
       -0.042595226 -0.07158259 0.034872074 -0.037436947
000110 cf 61 53 bd 77 9e b4 bd 41 50 ce 3d 6a b7 c6 3d
       -0.05160695 -0.08819287 0.10073901 0.09702952
000120 3f ab ab bd 85 e0 39 bd 8c 09 ad bd 07 27 6d bd
       -0.08382272 -0.045380134 -0.084490865 -0.057898548
000130 11 d2 4b bc fd fc c4 3c d9 ac 1c bd 56 01 26 bd
       -0.01244022 0.024046415 -0.038250778 -0.040528618
000140 b1 c3 63 3d 49 73 36 be d2 63 b1 3c 2b a1 27 be
       0.055606548 -0.17817415 0.021654043 -0.16370074
000150 62 14 64 ba b1 8e 15 be 6e 2f 49 be f4 a5 3b be
       -0.0008700547 -0.14605214 -0.19646999 -0.18325025
000160 ef 0d f1 bd 33 fd 39 bd a3 f3 23 be ef 42 59 be
       -0.11770236 -0.045407485 -0.16010909 -0.2121694
000170 ef 5c 39 bd 09 75 96 bd f9 fe 38 be 91 2e 2e 3d
       -0.045254644 -0.073465414 -0.18066014 0.042524878
000180 6a d7 c5 3d 90 31 35 3f 65 23 04 3e 05 98 75 3e
       0.096602276 0.7077875 0.12904127 0.23983772
000190 dc 03 e5 3d f4 d6 d7 3e b0 69 31 bd bd ea fb bd
       0.11182377 0.42156184 -0.043313682 -0.12300632
0001a0 eb 6a cc bd 13 20 87 3e 68 3e e4 3c df 04 be bc
       -0.099813305 0.26391658 0.027861789 -0.023195682
0001b0 b1 0e 77 3e bf 37 0d be 81 ed 21 3e b0 f8 90 3e
       0.24126698 -0.13790797 0.15813257 0.28314734
0001c0 cc 75 47 bf 60 cd cf 3e 76 43 24 3d a1 71 a5 bd
       -0.7791412 0.40586376 0.0401034 -0.080783136
0001d0 40 73 5f be 2a 8a f4 3d 3b f3 9c 3e 2c 13 44 bd
       -0.21821308 0.11940415 0.3065432 -0.047869846
0001e0 25 97 83 3c 8c 45 e1 3d c1 19 0b be 9e 91 00 bf
       0.016063282 0.10999593 -0.13584043 -0.50222194
0001f0 75 92 8e 3d 36 08 bc 3e 64 5f ce be 3e 42 04 bf
       0.06961528 0.36725014 -0.40307152 -0.5166358
000200 69 b9 fa be 1a 8e e5 bb 0c ac 8a bf fd dd b0 3d
       -0.48969582 -0.007005465 -1.0833755 0.08636091
000210 0f c1 f0 3e bc 9f 25 bd 48 00 41 be e1 44 e7 3d
       0.47022292 -0.040435538 -0.18847764 0.112924345
000220 06 22 1c 3f e6 33 79 be b8 19 00 3f 05 cb 09 3d
       0.60989416 -0.24336204 0.50039244 0.03364088
000230 8b ee 0a 3f 20 c0 d9 3f 4b 46 10 3f 1c ec f3 be
       0.5427024 1.7011757 0.5635726 -0.47641075
000240 51 02 80 bd 43 59 58 bd 86 02 a4 bd a8 f2 f3 bd
       -0.06250442 -0.0528195 -0.08008294 -0.119115174
000250 97 75 2c bc 3b 6a 01 bd 75 2d 2e bd 76 7f 2a bd
       -0.0105260825 -0.03159545 -0.04252382 -0.041625462
000260 64 14 7c bd aa 56 e0 bd 10 8c eb bd ce ca ec bc
       -0.061542884 -0.1095403 -0.11501324 -0.028905299
000270 01 b3 be bd d5 99 df bd 9c 3d e7 bd e3 f9 bf bd
       -0.09311486 -0.10918013 -0.11291048 -0.09373834
000280 74 7e 4e be 3e 08 d6 3c d4 9d 83 3b 5b af 08 bf
       -0.20165426 0.026126977 0.0040166173 -0.5339257
000290 88 80 4f be 05 97 37 3e 16 93 1d bd b1 dc 39 3c
       -0.20263875 0.17928703 -0.03847035 0.011344121
0002a0 f1 81 fe 3c 21 25 ff 3d d6 2f 1b bd fb 5a 65 bf
       0.03106782 0.12458254 -0.037887417 -0.8959195
0002b0 30 7d 11 3e fe 6a e9 3c 3f 33 f1 bd c7 41 02 3e
       0.14207911 0.0284934 -0.117773525 0.12720405
0002c0 2b ff d1 3e 84 4f 95 3d 15 1c a3 bd 0a c5 17 bf
       0.4101499 0.07290557 -0.079643406 -0.5928503
0002d0 6c d1 f3 3e d4 d1 0e 3d 5e ef dd 3c 8d 87 f2 be
       0.47620714 0.034868076 0.027091678 -0.47369042
0002e0 b0 67 fe be e5 b7 2d bf ea 80 b7 bc a8 53 b3 3d
       -0.49688482 -0.67858726 -0.022400338 0.087561905
0002f0 15 e4 a1 bd 21 68 08 3c 53 36 8c 3e ed 5d 88 3d
       -0.07904831 0.0083256075 0.27385196 0.0665854
000300 0d 30 13 bf c6 20 62 be 7f f3 57 3e 19 34 ba bc
       -0.57495195 -0.22082815 0.2108898 -0.02272992
000310 36 4f f5 bc 18 a6 d8 3d 3e d5 8c 3e d4 7e a0 bd
       -0.029944997 0.10578555 0.2750644 -0.078366905
000320 86 d4 a3 3e ca c4 58 be 83 c9 35 be 72 14 68 be
       0.3199808 -0.21168819 -0.17752652 -0.2266405
000330 2b 8d d7 3e 38 a6 c8 3e ea b9 c2 3e 31 09 8a bd
       0.4209989 0.39189315 0.38032466 -0.06740034
000340 14 74 b8 bd 8b 48 5b bc 92 5e 24 bd c6 19 cd bd
       -0.09006515 -0.013383995 -0.04012925 -0.100146815
000350 f7 d3 b5 bd 80 3c 35 bd 29 78 10 bd e9 fc 7b bd
       -0.0887832 -0.04424715 -0.035270844 -0.06152049
000360 71 c6 9c bd 88 63 aa bd 12 be c6 bd 35 59 c1 bd
       -0.07655037 -0.08319765 -0.09704222 -0.09440843
000370 99 e7 ad bd 3f ea d2 bc 35 13 57 bd 5f 97 b6 bd
       -0.08491439 -0.025746463 -0.05250855 -0.089155905
000380 66 eb 67 bd 19 ce 57 bd 1c 5b ba bd 67 2c c2 bd
       -0.056620978 -0.052686784 -0.09099409 -0.09481125
000390 f8 65 6c bd ed b7 9b bd 15 08 7d bd dd 2b 40 bd
       -0.057714432 -0.076034404 -0.061775286 -0.04691683
0003a0 bc 07 08 bd 70 b5 b7 3b bb 73 25 bd d5 95 6f bd
       -0.0332105 0.005606346 -0.040393572 -0.0584925
0003b0 38 e4 3e bd 22 d7 23 bd f6 c8 16 bd 61 54 c7 bd
       -0.046604365 -0.04000009 -0.036812745 -0.09732891
0003c0 e8 d2 86 3d 57 0a 32 3d 7c 13 94 3c dc 4d ae 3c
       0.06583196 0.043466892 0.018075697 0.02127736
0003d0 2b 84 3a 3d 9e c2 87 3d 30 b5 35 bc 27 62 5b 3d
       0.0455362 0.06628917 -0.011090562 0.053560402
0003e0 bf fd 6a 3d 01 43 c6 3d fa 26 27 3b 85 dd fb 3c
       0.057370897 0.09680749 0.002550541 0.030745277
0003f0 81 b0 10 3e 88 82 9b bd 3e 07 f1 3c 63 8a db 3d
       0.14129831 -0.07593256 0.029422399 0.107197545

fc1.bias f4 [50]
000000 76 a7 ac 3e e0 91 97 3e d7 e5 e9 3e b1 6f 92 3e
       0.33721513 0.2960348 0.45683166 0.2860084
000010 0e c1 d3 3e 9f ca 82 be 78 13 af be 4a 4c 10 3f
       0.41358227 -0.25545213 -0.3419454 0.5636641
000020 c8 1e 1c 3e 55 39 e1 3d 55 56 06 3e df c0 4d 3b
       0.15246117 0.10997263 0.1311887 0.0031395478
000030 81 92 0e 3f 53 d6 0c bc 11 36 2a 3e 09 94 dc 3e
       0.556923 -0.008596021 0.16622187 0.43081692
000040 b2 73 c4 3d 0e 87 04 3e c4 cf 47 3e 04 bb 69 be
       0.0959238 0.12942144 0.1951285 -0.22825247
000050 59 96 3c be 61 92 22 be 3d 27 b6 3d b2 1a 02 3f
       -0.18416728 -0.15876152 0.08894203 0.50821984
000060 fd 96 3a 3e ca 16 31 3e 02 97 df 3e cf df 06 bf
       0.1822166 0.1729385 0.43669897 -0.52685255
000070 5b 3d d6 3e ac e7 ed bc a6 88 da 3d ab 40 5b 3e
       0.41843686 -0.029041134 0.10670595 0.21411388
000080 a7 e5 89 3e cc d9 0e be 2c 50 09 3e 19 53 b1 be
       0.26933023 -0.1395027 0.1340949 -0.3463371
000090 59 0e a5 be 4f 94 89 3e 2f f6 23 bf 4c be ef be
       -0.3223751 0.26870963 -0.6404752 -0.46824872
0000a0 69 7e c7 3e 2f a3 f6 3d 4b b6 e2 3e 93 c8 ef bd
       0.3896363 0.120428436 0.44279703 -0.11708178
0000b0 f2 93 35 3f cd 49 58 bf 61 74 5d be 4d 27 1a 3f
       0.7092887 -0.8448761 -0.21626426 0.6021622
0000c0 ac d2 a6 be 92 85 6f 3e
       -0.32582605 0.23390797

fc2.weight f4 [10, 50]
000000 37 15 cf be 19 b3 1b be e2 43 d0 be 9f 41 d1 3d
       -0.40445873 -0.15205039 -0.4067679 0.10217594
000010 e3 9d 61 be 88 d2 1f 3d 09 61 e2 bd f7 fc f1 3d
       -0.22032885 0.039019138 -0.11053664 0.11815827
000020 76 72 72 be 92 89 0f bf 72 02 3e be 94 09 ca bd
       -0.23676476 -0.5606929 -0.1855562 -0.09865108
000030 2b 92 2c 3e 8c ea ac 3d 44 07 81 3e 5a a7 00 3e
       0.16852634 0.08443174 0.25200856 0.1256384
000040 a4 c4 27 be e1 5f 3d be 4d fc fa be 53 7f f2 bd
       -0.16383606 -0.18493606 -0.49020615 -0.118406914
000050 c3 a1 8f be f2 81 58 3e 73 c1 8f bd 19 76 95 be
       -0.28053102 0.2114332 -0.070193194 -0.29191664
000060 84 b2 65 3e d5 96 8b be ae 98 7b 3e 45 5b 8b be
       0.2243138 -0.27263513 0.24569961 -0.2721807
000070 b1 57 62 3e 0b b1 b7 be 99 f3 82 be 5b ce c0 bd
       0.22103764 -0.3587726 -0.25576475 -0.09414359
000080 c7 76 2d be a8 bd 4a bf 0b 57 2f 3e 4f ca 46 be
       -0.16939841 -0.7919564 0.17123048 -0.19413112
000090 13 b3 60 be c9 23 21 3e 44 67 15 be b6 be a0 be
       -0.21943311 0.15736307 -0.14590174 -0.313955
0000a0 7b 3c 3d 3e ea 37 f0 3c b3 b2 7a be 51 ee 25 be
       0.18480103 0.029323537 -0.24482231 -0.16204192
0000b0 25 39 75 3e b5 79 12 3d b7 73 35 be e9 64 7e 3d
       0.2394758 0.0357606 -0.17719923 0.062107954
0000c0 37 3e 67 be 39 01 98 be b3 4b f9 3d f7 54 23 bd
       -0.22582327 -0.29688433 0.121726416 -0.03987595
0000d0 01 7d 93 3d dc dd ad be 13 0f f3 3d 86 76 32 bd
       0.07201577 -0.33958328 0.118681096 -0.043570064
0000e0 a5 28 38 be d4 bb ac be 9c c3 3a bd fb 18 ad be
       -0.17984255 -0.3373705 -0.045596704 -0.3380812
0000f0 01 10 4d 3e 1c 7f 96 be 71 12 5b 3e c6 31 9a be
       0.20025636 -0.29393852 0.21393754 -0.301161
000100 c7 b9 8b be ae 28 16 bf 78 3a c0 be e6 a8 97 be
       -0.27290174 -0.5865582 -0.37544608 -0.29621047
000110 a8 db 55 3e 5c 6f f5 be 06 38 14 bf 2b 72 d9 be
       0.20884573 -0.47936523 -0.57897985 -0.42469916
000120 e4 d0 af be da 2d 25 3e 21 bf 4a bd dd e2 df be
       -0.34339058 0.16130772 -0.04949868 -0.4372777
000130 9d 5b a7 be 4d ae ac be bf f4 06 be 56 00 7a 3e
       -0.32687083 -0.3372673 -0.131793 0.2441419
000140 54 36 64 ba cd f3 8f be 23 11 bb 3d 7d fd c8 3d
       -0.0008705605 -0.28115693 0.09134128 0.09813974
000150 59 b2 49 be 4b d2 6f be 64 77 1b bf 42 3d 14 bf
       -0.1969694 -0.23420064 -0.6072905 -0.5790597
000160 9a 65 ed be b9 43 d2 bd e0 50 03 bf 3c bc 8d be
       -0.46366578 -0.10266823 -0.5129528 -0.27682674
000170 68 e2 83 3e de 75 54 be e9 bc 6f 3e 79 a3 38 bf
       0.25758672 -0.20748088 0.23411907 -0.7212444
000180 b6 9c 4f bf a8 a1 48 3e 91 59 09 bf e7 95 1a bf
       -0.81098497 0.19592917 -0.5365229 -0.6038498
000190 e4 7f 66 3d 54 32 ef 3b a7 5b 3a 3e 2c c5 f5 bc
       0.05627431 0.0072997008 0.18199025 -0.030001245
0001a0 27 17 52 3e 1d e7 24 be 66 dc 3f 3e be 86 f7 3d
       0.20516644 -0.16103788 0.18736419 0.12086247
0001b0 4e ce 04 3e 48 41 e2 bd ca 29 f6 3c b3 99 39 3e
       0.12969324 -0.11047608 0.030049223 0.18125038
0001c0 ee 54 32 bd ca 0f 32 bd ae db 69 bd fa c2 9e bd
       -0.043538027 -0.04347209 -0.05709427 -0.077520326
0001d0 48 9f 0b be 40 a6 36 3e bb 1e 2c be 04 85 08 be
       -0.1363498 0.17836857 -0.16808598 -0.13331991
0001e0 71 1b 8e be 65 6a 48 3d 06 e9 61 3d b9 62 f8 bd
       -0.2775531 0.04892959 0.05515387 -0.12128205
0001f0 7c 92 bf bd c1 18 3a bd 3a d6 5e be 5f 38 02 3e
       -0.093541116 -0.045433763 -0.21761408 0.12716816
000200 75 9c 3f 3e 07 22 15 3e a1 94 d7 bd c4 01 ca bd
       0.18712027 0.14563762 -0.105263956 -0.09863618
000210 07 8b ab 3d fe 75 9a be 10 c3 6d 3d 46 25 05 3e
       0.08376127 -0.30168146 0.058047354 0.130025
000220 be 16 96 bd b9 e2 2a be 98 89 49 be ec b6 2c 3e
       -0.073285565 -0.1668805 -0.19681394 0.16866654
000230 a5 65 21 3e 28 c2 03 bf 1b d2 a7 3d ce d0 d5 3c
       0.1576143 -0.51468134 0.08194371 0.026100542
000240 72 6d c2 3c eb 19 49 3c 5f 72 d0 be ee 6f 03 3e
       0.023733828 0.012274246 -0.40712258 0.12835667
000250 84 8c 91 be ec 5d 49 be a0 83 dd bd 67 b5 86 3e
       -0.28427517 -0.19664735 -0.10816121 0.26310274
000260 45 aa 08 3e d2 19 e4 3d 5c 2c 3c 3e a3 63 a0 bd
       0.13346203 0.11137737 0.18376297 -0.07831504
000270 50 96 44 3e 83 19 b4 bd 63 3d 3b 3e b4 6a 10 be
       0.19197965 -0.087939285 0.18285136 -0.14103204
000280 65 2f 60 be a8 6f 23 be ba 7d 31 bd 4d 92 8b bd
       -0.2189308 -0.15960562 -0.043332793 -0.06815014
000290 d0 b4 fa bd d1 ef 93 bd 68 de 60 be 66 b3 93 3e
       -0.122415185 -0.07223476 -0.21959841 0.28847808
0002a0 a1 94 90 be 28 d3 1c 3e 3f e7 a6 bd d7 11 12 bd
       -0.28238395 0.15314925 -0.081495754 -0.035661545
0002b0 2f 10 96 3c 1b c4 9d be f2 28 ab bd 19 6d 5e bd
       0.018318264 -0.3081368 -0.08357419 -0.054303262
0002c0 f4 8c 7e bc c4 3f 2f 3e 32 e1 4b 3d 5c 46 31 3e
       -0.0155365355 0.17114168 0.04977531 0.17311996
0002d0 82 47 86 be dd 15 8b 3e 31 fc fa bd b9 22 d9 3d
       -0.2622643 0.27165118 -0.12255133 0.10602326
0002e0 92 5c 2c 3b 5f d6 3a bd 0c 54 4c 3e 98 9f 03 3e
       0.0026300293 -0.045614596 0.19953936 0.12853849
0002f0 d4 9a 47 3e 3e 9e d8 bd 3b 65 cf 3d b9 b4 82 be
       0.19492656 -0.10577057 0.1012673 -0.25528505
000300 d3 f7 77 bd 87 d4 6f 3d d8 53 df bc bd bc e7 be
       -0.060539078 0.05855229 -0.02726166 -0.45261183
000310 72 9a 82 be 73 8f 3b be ac a6 48 3e 22 ea 4b be
       -0.25508457 -0.1831644 0.1959483 -0.19913533
000320 d2 4d 59 be c7 ab 8b bd 3f 8f 97 be d6 18 c0 be
       -0.21221092 -0.06819873 -0.29601476 -0.37518948
000330 95 09 63 be c6 75 9e bd 7d 5d 67 be 08 e1 3e bd
       -0.22171624 -0.07737307 -0.22594257 -0.046601325
000340 d7 1c b7 be da a4 95 3e df f2 89 3e e3 8b 55 3e
       -0.3576419 0.29227334 0.26943108 0.20854144
000350 d7 0d e5 be 99 c6 75 bd cf c2 79 be fc 0f 63 be
       -0.4473712 -0.06000385 -0.2439072 -0.22174066
000360 72 1d d0 3d 75 bb 9b be 78 78 7d 3e 63 04 d2 bd
       0.10161866 -0.30416456 0.24752986 -0.10254743
000370 49 89 31 3e a0 8c 6a 3e ae 46 70 be e5 bb 39 3e
       0.17337526 0.22905207 -0.23464462 0.18138082
000380 9f df bb be ea 25 90 bc aa a1 cb bd 52 f1 77 be
       -0.36694047 -0.017596204 -0.09942944 -0.2421315
000390 2a 3f 81 bb b2 54 e6 bd a4 49 43 3c 6d 1f 17 be
       -0.0039442973 -0.11246623 0.011919413 -0.14758082
0003a0 51 14 4c 3e f6 fa 10 3e bf 19 08 be 20 29 c8 bd
       0.19929625 0.14158234 -0.13291071 -0.09773469
0003b0 3d e9 19 3d 27 9f 2c bd 08 de c7 bd 84 d2 08 be
       0.03757595 -0.042143967 -0.09759146 -0.13361555
0003c0 ae f1 2e 3e 48 ec 84 be 1a f1 06 be 0d b9 6a 3e
       0.17084381 -0.25961518 -0.1317791 0.22922154
0003d0 fa 51 2e be e6 6b 15 3d 86 51 7d 3d 75 e3 60 3d
       -0.17023459 0.036479853 0.061845325 0.05490442
0003e0 d1 2c eb 3d 14 4e 81 3e d3 82 ad be 70 cd 5f 3d
       0.114831574 0.2525488 -0.33888873 0.05463928
0003f0 69 73 8f be 51 1c eb 3d f5 7d 32 be 1f 93 dd 3b
       -0.28017738 0.1148001 -0.17430861 0.006761923

fc2.bias f4 [10]
000000 ce 89 84 3e f4 93 84 3f 7c 7f 9a be 13 1d e6 be
       0.25886387 1.0357652 -0.30175388 -0.44944057
000010 c4 87 0f be ee 1e c0 3d 8a 13 4e bf 89 66 03 bf
       -0.14016634 0.09380899 -0.80498564 -0.5132833
000020 b0 f4 c5 3e e1 9f 76 3c
       0.38663244 0.015052767
