lightning_logs/version_0/checkpoints/epoch=0-step=32.ckpt (torch, 7113 bytes, 6 tensors)

linear.weight f4 [4, 32]
0	0x3f29bec3	0.66306704
1	0x3e537952	0.20651749
2	0x3f0823a7	0.531794
3	0x3e2f974a	0.17147556
4	0x3fc38b17	1.5276822
5	0xbf599e8b	-0.8500754
6	0xbdc209b4	-0.09474507
7	0x3f2fb4f1	0.6863547
8	0xbd8c8446	-0.06861167
9	0x3f033c8d	0.5126427
10	0x3e897b57	0.26851913
11	0x3da8bd80	0.08239269
12	0x3f1b087c	0.6055982
13	0xbe82810c	-0.2548908
14	0x3f8a1de8	1.0790377
15	0x3e90ca22	0.28279215
16	0xbddda058	-0.10821599
17	0x3eb3e7a5	0.35137668
18	0x3fd28d58	1.6449385
19	0xbe0beb51	-0.13663985
20	0x3f0137b8	0.50475645
21	0xbf081f6c	-0.53172946
22	0x3f4dbb02	0.80363476
23	0xbe7fa764	-0.24966198
24	0x3f4b2b30	0.79362774
25	0xbfb881e4	-1.441464
26	0xbe33a753	-0.17544298
27	0x3e13547f	0.14387701
28	0x3f10c8b1	0.5655623
29	0x3ab1f670	0.0013577472
30	0xbe724ef8	-0.23662937
31	0x3f6288ba	0.8848988
32	0x3f2f4388	0.6846242
33	0x3ef310c5	0.47473732
34	0x3f03b8bb	0.5145375
35	0xbd4d4a7e	-0.05011987
36	0x3fc6e8f3	1.553984
37	0xbf5b65d0	-0.8570223
38	0x3d5cfaf9	0.053950284
39	0x3f226ebe	0.6345023
40	0x3e619eb7	0.22033201
41	0x3f206661	0.6265622
42	0x3e9bad51	0.30405667
43	0xbe2414d6	-0.16023573
44	0x3f201249	0.625279
45	0xbf0c570d	-0.5482033
46	0x3f6d9e4e	0.9281968
47	0x3e9349f9	0.28767374
48	0xbde66999	-0.1125061
49	0x3e8dc3c9	0.27688435
50	0x3faea3cf	1.364374
51	0x3d79877f	0.060920235
52	0x3eebee2d	0.4608015
53	0xbf3f696a	-0.74770224
54	0x3f5d085e	0.8634089
55	0xbe088e6e	-0.13335583
56	0x3f198b8a	0.59978545
57	0xbfac88ca	-1.3479245
58	0x3d2c913a	0.042130686
59	0x3d01da80	0.03170252
60	0x3ebbf4b1	0.36710122
61	0xbdc336d9	-0.09531946
62	0xbef7c8e5	-0.48395458
63	0x3f80a8a2	1.0051463
64	0x3f3b99b3	0.732814
65	0x3e7a16b0	0.24422717
66	0x3ef13387	0.47109625
67	0x3e1a8c2b	0.15092532
68	0x3fbf033f	1.4922866
69	0xbf65f30d	-0.8982399
70	0xbde09fb4	-0.10967961
71	0x3f5dea0a	0.8668524
72	0x3ddc5d98	0.10760039
73	0x3f25272c	0.64512897
74	0x3ee41210	0.4454503
75	0xbd106842	-0.035255678
76	0x3f66fb15	0.9022687
77	0xbeec14e2	-0.46109682
78	0x3f683a14	0.9071362
79	0x3e5dd9b8	0.21665084
80	0xbe5156d5	-0.2044328
81	0x3e4ca74f	0.19985698
82	0x3fb5a92b	1.4192251
83	0x3dd30dc5	0.10305361
84	0x3f0ceebf	0.550518
85	0xbf14850c	-0.58015513
86	0x3f274ff7	0.6535639
87	0xbd2c9254	-0.042131737
88	0x3f4af3b2	0.792781
89	0xbf9dbc58	-1.2323103
90	0xbd89efa7	-0.06735163
91	0x3e0c4286	0.13697252
92	0x3ede6cbe	0.4344234
93	0x3dea39ab	0.114367805
94	0xbe541c86	-0.20714006
95	0x3f6f80d9	0.9355598
96	0x3f247f94	0.6425717
97	0x3f01e70e	0.50743186
98	0x3f1f7495	0.62287265
99	0xbdb10be7	-0.08644848
100	0x3fd60417	1.6719998
101	0xbf60f04b	-0.8786666
102	0x3d5e3189	0.05424646
103	0x3f2dca58	0.6788688
104	0x3e416fd5	0.18890317
105	0x3f2082b4	0.6269944
106	0x3f0c8db5	0.5490373
107	0x3cf815d2	0.030283842
108	0x3f1b608a	0.6069418
109	0xbef6cc7a	-0.48202878
110	0x3f85a554	1.0441079
111	0x3e1801b2	0.14844397
112	0xbdd161b3	-0.10223713
113	0x3e371482	0.17878917
114	0x3fc29dc4	1.5204396
115	0x3db00386	0.08594422
116	0x3ed14971	0.40876344
117	0xbef5a8de	-0.47980398
118	0x3f66a38f	0.9009332
119	0x3d6efe16	0.058347784
120	0x3f1fe31e	0.6245593
121	0xbfa20887	-1.2658852
122	0xbdbb3d15	-0.0914251
123	0xbdbcbc6a	-0.09215625
124	0x3f27d850	0.6556444
125	0xbc6a2f46	-0.014293497
126	0xbeeb3620	-0.45939732
127	0x3f596a1b	0.8492753

linear.bias f4 [4]
0	0xc04c3438	-3.1906872
1	0xc05403b1	-3.3127253
2	0xc04e9ab7	-3.228193
3	0xc04d572c	-3.2084455

exp_avg f4 [4, 32]
0	0xbf28af44	-0.65892434
1	0xbf5517c5	-0.83239394
2	0xbe4ac1b0	-0.19800448
3	0xbf4f4c23	-0.8097555
4	0xbf30cb53	-0.6906025
5	0x3f896f2b	1.0737051
6	0x3f95c509	1.1700755
7	0xbf8aa1a7	-1.0830582
8	0x3f71e75b	0.94493645
9	0xbedfd0a7	-0.43713877
10	0xbfb089f1	-1.3792096
11	0x3c825e21	0.015914025
12	0xbec41efb	-0.38304886
13	0xbf82da13	-1.0222801
14	0xbdcabab4	-0.09898892
15	0x3cd2aa6f	0.025716035
16	0xbca7f7eb	-0.020503959
17	0xbd98a317	-0.07452982
18	0xbfb333f7	-1.4000233
19	0xbd81a27c	-0.063298196
20	0x3e8f9ce3	0.28049383
21	0x3f99c9ac	1.201467
22	0x3d5c6743	0.053809416
23	0xbf1f2ce0	-0.6217785
24	0xbe134942	-0.14383414
25	0x3ff9fe82	1.9530795
26	0xbecba252	-0.39772278
27	0x3e96f875	0.29486433
28	0x3dc747e5	0.0973051
29	0xbf32f6f9	-0.699081
30	0x3f6bc87e	0.921028
31	0xbe302ecf	-0.17205356
32	0xbf28af44	-0.65892434
33	0xbf5517c5	-0.83239394
34	0xbe4ac1b0	-0.19800448
35	0xbf4f4c23	-0.8097555
36	0xbf30cb53	-0.6906025
37	0x3f896f2b	1.0737051
38	0x3f95c509	1.1700755
39	0xbf8aa1a7	-1.0830582
40	0x3f71e75b	0.94493645
41	0xbedfd0a7	-0.43713877
42	0xbfb089f1	-1.3792096
43	0x3c825e21	0.015914025
44	0xbec41efb	-0.38304886
45	0xbf82da13	-1.0222801
46	0xbdcabab4	-0.09898892
47	0x3cd2aa6f	0.025716035
48	0xbca7f7eb	-0.020503959
49	0xbd98a317	-0.07452982
50	0xbfb333f7	-1.4000233
51	0xbd81a27c	-0.063298196
52	0x3e8f9ce3	0.28049383
53	0x3f99c9ac	1.201467
54	0x3d5c6743	0.053809416
55	0xbf1f2ce0	-0.6217785
56	0xbe134942	-0.14383414
57	0x3ff9fe82	1.9530795
58	0xbecba252	-0.39772278
59	0x3e96f875	0.29486433
60	0x3dc747e5	0.0973051
61	0xbf32f6f9	-0.699081
62	0x3f6bc87e	0.921028
63	0xbe302ecf	-0.17205356
64	0xbf28af44	-0.65892434
65	0xbf5517c5	-0.83239394
66	0xbe4ac1b0	-0.19800448
67	0xbf4f4c23	-0.8097555
68	0xbf30cb53	-0.6906025
69	0x3f896f2b	1.0737051
70	0x3f95c509	1.1700755
71	0xbf8aa1a7	-1.0830582
72	0x3f71e75b	0.94493645
73	0xbedfd0a7	-0.43713877
74	0xbfb089f1	-1.3792096
75	0x3c825e21	0.015914025
76	0xbec41efb	-0.38304886
77	0xbf82da13	-1.0222801
78	0xbdcabab4	-0.09898892
79	0x3cd2aa6f	0.025716035
80	0xbca7f7eb	-0.020503959
81	0xbd98a317	-0.07452982
82	0xbfb333f7	-1.4000233
83	0xbd81a27c	-0.063298196
84	0x3e8f9ce3	0.28049383
85	0x3f99c9ac	1.201467
86	0x3d5c6743	0.053809416
87	0xbf1f2ce0	-0.6217785
88	0xbe134942	-0.14383414
89	0x3ff9fe82	1.9530795
90	0xbecba252	-0.39772278
91	0x3e96f875	0.29486433
92	0x3dc747e5	0.0973051
93	0xbf32f6f9	-0.699081
94	0x3f6bc87e	0.921028
95	0xbe302ecf	-0.17205356
96	0xbf28af44	-0.65892434
97	0xbf5517c5	-0.83239394
98	0xbe4ac1b0	-0.19800448
99	0xbf4f4c23	-0.8097555
100	0xbf30cb53	-0.6906025
101	0x3f896f2b	1.0737051
102	0x3f95c509	1.1700755
103	0xbf8aa1a7	-1.0830582
104	0x3f71e75b	0.94493645
105	0xbedfd0a7	-0.43713877
106	0xbfb089f1	-1.3792096
107	0x3c825e21	0.015914025
108	0xbec41efb	-0.38304886
109	0xbf82da13	-1.0222801
110	0xbdcabab4	-0.09898892
111	0x3cd2aa6f	0.025716035
112	0xbca7f7eb	-0.020503959
113	0xbd98a317	-0.07452982
114	0xbfb333f7	-1.4000233
115	0xbd81a27c	-0.063298196
116	0x3e8f9ce3	0.28049383
117	0x3f99c9ac	1.201467
118	0x3d5c6743	0.053809416
119	0xbf1f2ce0	-0.6217785
120	0xbe134942	-0.14383414
121	0x3ff9fe82	1.9530795
122	0xbecba252	-0.39772278
123	0x3e96f875	0.29486433
124	0x3dc747e5	0.0973051
125	0xbf32f6f9	-0.699081
126	0x3f6bc87e	0.921028
127	0xbe302ecf	-0.17205356

exp_avg_sq f4 [4, 32]
0	0x3e8daae5	0.27669445
1	0x3eb597cf	0.35467383
2	0x3e283e7e	0.16430089
3	0x3e970914	0.29499114
4	0x3e66830d	0.2251093
5	0x3eacf800	0.3378296
6	0x3ec5bbbf	0.386198
7	0x3e334744	0.17507654
8	0x3e49405c	0.19653457
9	0x3ea41cc3	0.32053193
10	0x3e91b872	0.28461033
11	0x3e20a520	0.1568799
12	0x3eb70809	0.35748318
13	0x3e79ed9d	0.24407049
14	0x3e779548	0.2417804
15	0x3e7c4777	0.24636637
16	0x3e25ace3	0.16179232
17	0x3e85efd0	0.26159525
18	0x3e91a970	0.28449583
19	0x3e2d7874	0.1694048
20	0x3e5ba216	0.2144855
21	0x3e789f77	0.24279581
22	0x3eaea164	0.34107506
23	0x3ee186f9	0.44048288
24	0x3e854ecf	0.2603669
25	0x3ed6d56a	0.41959697
26	0x3e211280	0.15729713
27	0x3e64d478	0.22346675
28	0x3e621685	0.22078903
29	0x3e5e81e0	0.21729231
30	0x3ec05dd2	0.3757158
31	0x3e71dd5e	0.23619601
32	0x3e8daae5	0.27669445
33	0x3eb597cf	0.35467383
34	0x3e283e7e	0.16430089
35	0x3e970914	0.29499114
36	0x3e66830d	0.2251093
37	0x3eacf800	0.3378296
38	0x3ec5bbbf	0.386198
39	0x3e334744	0.17507654
40	0x3e49405c	0.19653457
41	0x3ea41cc3	0.32053193
42	0x3e91b872	0.28461033
43	0x3e20a520	0.1568799
44	0x3eb70809	0.35748318
45	0x3e79ed9d	0.24407049
46	0x3e779548	0.2417804
47	0x3e7c4777	0.24636637
48	0x3e25ace3	0.16179232
49	0x3e85efd0	0.26159525
50	0x3e91a970	0.28449583
51	0x3e2d7874	0.1694048
52	0x3e5ba216	0.2144855
53	0x3e789f77	0.24279581
54	0x3eaea164	0.34107506
55	0x3ee186f9	0.44048288
56	0x3e854ecf	0.2603669
57	0x3ed6d56a	0.41959697
58	0x3e211280	0.15729713
59	0x3e64d478	0.22346675
60	0x3e621685	0.22078903
61	0x3e5e81e0	0.21729231
62	0x3ec05dd2	0.3757158
63	0x3e71dd5e	0.23619601
64	0x3e8daae5	0.27669445
65	0x3eb597cf	0.35467383
66	0x3e283e7e	0.16430089
67	0x3e970914	0.29499114
68	0x3e66830d	0.2251093
69	0x3eacf800	0.3378296
70	0x3ec5bbbf	0.386198
71	0x3e334744	0.17507654
72	0x3e49405c	0.19653457
73	0x3ea41cc3	0.32053193
74	0x3e91b872	0.28461033
75	0x3e20a520	0.1568799
76	0x3eb70809	0.35748318
77	0x3e79ed9d	0.24407049
78	0x3e779548	0.2417804
79	0x3e7c4777	0.24636637
80	0x3e25ace3	0.16179232
81	0x3e85efd0	0.26159525
82	0x3e91a970	0.28449583
83	0x3e2d7874	0.1694048
84	0x3e5ba216	0.2144855
85	0x3e789f77	0.24279581
86	0x3eaea164	0.34107506
87	0x3ee186f9	0.44048288
88	0x3e854ecf	0.2603669
89	0x3ed6d56a	0.41959697
90	0x3e211280	0.15729713
91	0x3e64d478	0.22346675
92	0x3e621685	0.22078903
93	0x3e5e81e0	0.21729231
94	0x3ec05dd2	0.3757158
95	0x3e71dd5e	0.23619601
96	0x3e8daae5	0.27669445
97	0x3eb597cf	0.35467383
98	0x3e283e7e	0.16430089
99	0x3e970914	0.29499114
100	0x3e66830d	0.2251093
101	0x3eacf800	0.3378296
102	0x3ec5bbbf	0.386198
103	0x3e334744	0.17507654
104	0x3e49405c	0.19653457
105	0x3ea41cc3	0.32053193
106	0x3e91b872	0.28461033
107	0x3e20a520	0.1568799
108	0x3eb70809	0.35748318
109	0x3e79ed9d	0.24407049
110	0x3e779548	0.2417804
111	0x3e7c4777	0.24636637
112	0x3e25ace3	0.16179232
113	0x3e85efd0	0.26159525
114	0x3e91a970	0.28449583
115	0x3e2d7874	0.1694048
116	0x3e5ba216	0.2144855
117	0x3e789f77	0.24279581
118	0x3eaea164	0.34107506
119	0x3ee186f9	0.44048288
120	0x3e854ecf	0.2603669
121	0x3ed6d56a	0.41959697
122	0x3e211280	0.15729713
123	0x3e64d478	0.22346675
124	0x3e621685	0.22078903
125	0x3e5e81e0	0.21729231
126	0x3ec05dd2	0.3757158
127	0x3e71dd5e	0.23619601

exp_avg f4 [4]
0	0x40f735b4	7.7253056
1	0x40f735b4	7.7253056
2	0x40f735b4	7.7253056
3	0x40f735b4	7.7253056

exp_avg_sq f4 [4]
0	0x40010f82	2.0165715
1	0x40010f82	2.0165715
2	0x40010f82	2.0165715
3	0x40010f82	2.0165715
