lightning_logs/version_1/checkpoints/epoch=0-step=32.ckpt (torch, 7113 bytes, 6 tensors)

linear.weight f4 [4, 32]
00000000: 2697 403e 2309 ee3e 11da a1bd 45c0 803e
00000010: 7cab 573f db73 dabe 0e91 ea3f a4fc b33f
00000020: b277 bb3e 762b 37bf bfe9 e4be 48f9 403e
00000030: b89d b73e 0abd 233f 583b d7be fea4 4f3e
00000040: f7ef f43e 6ca2 39bf 840c f53e 8db7 9bbf
00000050: 083e a5bd e1fe f5be ca5a 30be 9e14 0cbd
00000060: 0519 6d3e 007d 0bbc be85 b03e 2f52 efbe
00000070: 3951 a5be 9117 223f 3737 0bbf be95 62bf
00000080: 5b37 d73d d77e de3e d02c 5abe bdb0 0f3f
00000090: e5ec 573f 8d9e 40be cf0a e83f 8095 ae3f
000000a0: 44f9 bc3d 29a8 44bf 39e3 5fbe 278a 00bb
000000b0: 638e f63e 044b 493f 9fa8 a8be 3c58 8e3e
000000c0: def5 333f e895 18bf 74bb 083f e0c0 b6bf
000000d0: e464 753d 0384 dabe 0a2b 3fbe f4d2 303e
000000e0: efa2 fb3d 4c94 39be eef8 f33e d11f 13bf
000000f0: 2e7f 0bbf d5ad 563f 4f13 ebbe 22fe 86bf
00000100: 5877 12be b566 3d3e 000b 29be 601d ec3e
00000110: 9783 583f d510 87be 1a0c e43f 8660 963f
00000120: 7e15 183e 0361 40bf 40a2 babe fe3f 0f3e
00000130: 015f aa3e 09df 333f 7485 a7be 489b 143c
00000140: 46c0 1d3f 3b4a d9be 8ed2 9e3e 5fe8 a4bf
00000150: 49b5 bdbd 83df 0dbf 3103 69bd 9ceb da3d
00000160: be80 053e f5cd 12be dad3 8c3e 8a16 c4be
00000170: fbaa 85be 4cd4 463f cb03 dcbe e63a 5cbf
00000180: c840 943b 4ecf 873e 1be5 36be 513d bd3e
00000190: cfe1 5e3f be20 8dbe 41c0 ed3f 67a2 8c3f
000001a0: 22b4 ca3d abb4 18bf b739 f2be 1eab 823e
000001b0: 3db1 023f b67a 183f bcb3 91be ae32 bb3c
000001c0: 2169 163f 079e 16bf 914c d63e a896 a5bf
000001d0: 79ee 87bd 7ba0 e8be de43 d2bd bf56 ddbb
000001e0: 2c40 503e 7946 26be 8a1e 0b3f b0b6 22bf
000001f0: c07d b5be 588d 473f 2c31 a3be 92f9 79bf
0.18807659 0.46491346 -0.07902921 0.2514669 0.8424604 -0.42666516 1.8325517 1.4061475
0.36614758 -0.7155069 -0.44709584 0.18845093 0.35862517 0.63960326 -0.42037463 0.20277783
0.4783933 -0.7251346 0.4786111 -1.216539 -0.08068472 -0.4804602 -0.17222133 -0.03419935
0.23154075 -0.008513689 0.34477037 -0.4674239 -0.3228853 0.6331721 -0.54381126 -0.8850974
0.10508605 0.43456146 -0.21306157 0.56129056 0.8434585 -0.18810482 1.8128299 1.3639374
0.09227231 -0.7681909 -0.21864022 -0.0019613595 0.48155507 0.7863009 -0.32941148 0.27801692
0.7029704 -0.5960374 0.5341103 -1.4277611 0.05991067 -0.42678842 -0.18668762 0.17267972
0.122869365 -0.18122977 0.47650856 -0.57470423 -0.54490936 0.83858997 -0.4591317 -1.0546305
-0.14303339 0.18496211 -0.16508102 0.4611616 0.8457579 -0.2638003 1.7816193 1.1748207
0.14851949 -0.7514803 -0.36451912 0.13989255 0.33275607 0.702622 -0.32719004 0.009070225
0.6162151 -0.42439446 0.31020015 -1.2883414 -0.09263093 -0.55419177 -0.05688781 0.1068947
0.13037392 -0.14336379 0.2750538 -0.38298446 -0.2610701 0.7766769 -0.42971644 -0.8602737
0.004524324 0.26525348 -0.17860834 0.36960843 0.87063307 -0.27564043 1.8574296 1.0987061
0.09897639 -0.5965068 -0.47309658 0.25521177 0.51051694 0.5956224 -0.2845744 0.022851314
0.58754164 -0.5883488 0.4185529 -1.2936602 -0.06637282 -0.45434937 -0.10266851 -0.0067547257
0.2033698 -0.1623782 0.54343474 -0.6356001 -0.35447502 0.7795005 -0.31873453 -0.9764644

linear.bias f4 [4]
00000000: 50b5 50c0 7c55 47c0 1414 45c0 5b7d 50c0
-3.2610664 -3.1145926 -3.0793505 -3.257651

exp_avg f4 [4, 32]
00000000: 789a f6be 8aa6 c03d 545c 3e3d 2965 85bd
00000010: 5dda 483f 856c 7b3f 861f b3bf ccc9 60bf
00000020: 9256 783c e3bc 903e 1b03 113b 8e64 113d
00000030: 8037 603f eb60 82bf d1b0 273f 5488 48bf
00000040: ca2a 54bf 69bd 433f 2662 0a3f ee8c 563e
00000050: f25c 6e3e a223 ce3e a206 c1be 6121 9f3e
00000060: 4217 21be 92ae 923f be50 d2bc 23f4 843e
00000070: 6fa6 373f 594d 163f b111 63bf 6ca9 51bd
00000080: 789a f6be 8aa6 c03d 545c 3e3d 2965 85bd
00000090: 5dda 483f 856c 7b3f 861f b3bf ccc9 60bf
000000a0: 9256 783c e3bc 903e 1b03 113b 8e64 113d
000000b0: 8037 603f eb60 82bf d1b0 273f 5488 48bf
000000c0: ca2a 54bf 69bd 433f 2662 0a3f ee8c 563e
000000d0: f25c 6e3e a223 ce3e a206 c1be 6121 9f3e
000000e0: 4217 21be 92ae 923f be50 d2bc 23f4 843e
000000f0: 6fa6 373f 594d 163f b111 63bf 6ca9 51bd
00000100: 789a f6be 8aa6 c03d 545c 3e3d 2965 85bd
00000110: 5dda 483f 856c 7b3f 861f b3bf ccc9 60bf
00000120: 9256 783c e3bc 903e 1b03 113b 8e64 113d
00000130: 8037 603f eb60 82bf d1b0 273f 5488 48bf
00000140: ca2a 54bf 69bd 433f 2662 0a3f ee8c 563e
00000150: f25c 6e3e a223 ce3e a206 c1be 6121 9f3e
00000160: 4217 21be 92ae 923f be50 d2bc 23f4 843e
00000170: 6fa6 373f 594d 163f b111 63bf 6ca9 51bd
00000180: 789a f6be 8aa6 c03d 545c 3e3d 2965 85bd
00000190: 5dda 483f 856c 7b3f 861f b3bf ccc9 60bf
000001a0: 9256 783c e3bc 903e 1b03 113b 8e64 113d
000001b0: 8037 603f eb60 82bf d1b0 273f 5488 48bf
000001c0: ca2a 54bf 69bd 433f 2662 0a3f ee8c 563e
000001d0: f25c 6e3e a223 ce3e a206 c1be 6121 9f3e
000001e0: 4217 21be 92ae 923f be50 d2bc 23f4 843e
000001f0: 6fa6 373f 594d 163f b111 63bf 6ca9 51bd
-0.48164725 0.09406765 0.04647477 -0.065134354 0.78458196 0.9821246 -1.3993995 -0.8780792
0.015157359 0.2826911 0.0022127095 0.035496287 0.87584686 -1.0185827 0.65504175 -0.7833302
-0.8287779 0.7646089 0.5405601 0.20952198 0.23277643 0.4026156 -0.37700373 0.31080154
-0.15731528 1.1459525 -0.025673267 0.25967512 0.7173833 0.58711773 -0.8869887 -0.051186964
-0.48164725 0.09406765 0.04647477 -0.065134354 0.78458196 0.9821246 -1.3993995 -0.8780792
0.015157359 0.2826911 0.0022127095 0.035496287 0.87584686 -1.0185827 0.65504175 -0.7833302
-0.8287779 0.7646089 0.5405601 0.20952198 0.23277643 0.4026156 -0.37700373 0.31080154
-0.15731528 1.1459525 -0.025673267 0.25967512 0.7173833 0.58711773 -0.8869887 -0.051186964
-0.48164725 0.09406765 0.04647477 -0.065134354 0.78458196 0.9821246 -1.3993995 -0.8780792
0.015157359 0.2826911 0.0022127095 0.035496287 0.87584686 -1.0185827 0.65504175 -0.7833302
-0.8287779 0.7646089 0.5405601 0.20952198 0.23277643 0.4026156 -0.37700373 0.31080154
-0.15731528 1.1459525 -0.025673267 0.25967512 0.7173833 0.58711773 -0.8869887 -0.051186964
-0.48164725 0.09406765 0.04647477 -0.065134354 0.78458196 0.9821246 -1.3993995 -0.8780792
0.015157359 0.2826911 0.0022127095 0.035496287 0.87584686 -1.0185827 0.65504175 -0.7833302
-0.8287779 0.7646089 0.5405601 0.20952198 0.23277643 0.4026156 -0.37700373 0.31080154
-0.15731528 1.1459525 -0.025673267 0.25967512 0.7173833 0.58711773 -0.8869887 -0.051186964

exp_avg_sq f4 [4, 32]
00000000: e96d 8f3e a7e6 a63e 1ec4 943e 9512 733e
00000010: 41d5 7b3e ddae 663e add6 723e 6f19 733e
00000020: 675c 343e 1ca0 6c3e 24aa 383e 6877 133e
00000030: 47b2 843e e2c4 943e aca1 5a3e f9b9 9b3e
00000040: b4ac 7a3e 97ad 853e 71eb 9f3e 7c6d 8a3e
00000050: c197 a13e de99 8b3e 4265 b23e 5379 4b3e
00000060: 4e32 a03e 0f75 823e fb4e 473e f815 833e
00000070: d55f b43e b209 263e 8219 3e3e dffd 593e
00000080: e96d 8f3e a7e6 a63e 1ec4 943e 9512 733e
00000090: 41d5 7b3e ddae 663e add6 723e 6f19 733e
000000a0: 675c 343e 1ca0 6c3e 24aa 383e 6877 133e
000000b0: 47b2 843e e2c4 943e aca1 5a3e f9b9 9b3e
000000c0: b4ac 7a3e 97ad 853e 71eb 9f3e 7c6d 8a3e
000000d0: c197 a13e de99 8b3e 4265 b23e 5379 4b3e
000000e0: 4e32 a03e 0f75 823e fb4e 473e f815 833e
000000f0: d55f b43e b209 263e 8219 3e3e dffd 593e
00000100: e96d 8f3e a7e6 a63e 1ec4 943e 9512 733e
00000110: 41d5 7b3e ddae 663e add6 723e 6f19 733e
00000120: 675c 343e 1ca0 6c3e 24aa 383e 6877 133e
00000130: 47b2 843e e2c4 943e aca1 5a3e f9b9 9b3e
00000140: b4ac 7a3e 97ad 853e 71eb 9f3e 7c6d 8a3e
00000150: c197 a13e de99 8b3e 4265 b23e 5379 4b3e
00000160: 4e32 a03e 0f75 823e fb4e 473e f815 833e
00000170: d55f b43e b209 263e 8219 3e3e dffd 593e
00000180: e96d 8f3e a7e6 a63e 1ec4 943e 9512 733e
00000190: 41d5 7b3e ddae 663e add6 723e 6f19 733e
000001a0: 675c 343e 1ca0 6c3e 24aa 383e 6877 133e
000001b0: 47b2 843e e2c4 943e aca1 5a3e f9b9 9b3e
000001c0: b4ac 7a3e 97ad 853e 71eb 9f3e 7c6d 8a3e
000001d0: c197 a13e de99 8b3e 4265 b23e 5379 4b3e
000001e0: 4e32 a03e 0f75 823e fb4e 473e f815 833e
000001f0: d55f b43e b209 263e 8219 3e3e dffd 593e
0.28013542 0.3259785 0.29055876 0.23737557 0.24593069 0.22527643 0.23714705 0.23740171
0.17613374 0.23107952 0.18033653 0.14401019 0.25917265 0.2905646 0.21350735 0.30415323
0.24479944 0.26109 0.31234315 0.27036655 0.31561092 0.2726583 0.3484288 0.198705
0.3128838 0.25479934 0.19463722 0.25602698 0.35229364 0.16214636 0.18564418 0.2128825
0.28013542 0.3259785 0.29055876 0.23737557 0.24593069 0.22527643 0.23714705 0.23740171
0.17613374 0.23107952 0.18033653 0.14401019 0.25917265 0.2905646 0.21350735 0.30415323
0.24479944 0.26109 0.31234315 0.27036655 0.31561092 0.2726583 0.3484288 0.198705
0.3128838 0.25479934 0.19463722 0.25602698 0.35229364 0.16214636 0.18564418 0.2128825
0.28013542 0.3259785 0.29055876 0.23737557 0.24593069 0.22527643 0.23714705 0.23740171
0.17613374 0.23107952 0.18033653 0.14401019 0.25917265 0.2905646 0.21350735 0.30415323
0.24479944 0.26109 0.31234315 0.27036655 0.31561092 0.2726583 0.3484288 0.198705
0.3128838 0.25479934 0.19463722 0.25602698 0.35229364 0.16214636 0.18564418 0.2128825
0.28013542 0.3259785 0.29055876 0.23737557 0.24593069 0.22527643 0.23714705 0.23740171
0.17613374 0.23107952 0.18033653 0.14401019 0.25917265 0.2905646 0.21350735 0.30415323
0.24479944 0.26109 0.31234315 0.27036655 0.31561092 0.2726583 0.3484288 0.198705
0.3128838 0.25479934 0.19463722 0.25602698 0.35229364 0.16214636 0.18564418 0.2128825

exp_avg f4 [4]
00000000: b435 f740 b435 f740 b435 f740 b435 f740
7.7253056 7.7253056 7.7253056 7.7253056

exp_avg_sq f4 [4]
00000000: 820f 0140 820f 0140 820f 0140 820f 0140
2.0165715 2.0165715 2.0165715 2.0165715
